…
br><span class="line">15</span><br><span class="line">16</span><br><span class="line">17</span><br><span class="line">18</span><br><span class="line">19</span><br><span class="line">20</span><br><span class="line">21</span><br><span class="line">22</span><br><span class="line">23</span><br><span class="line">24</span><br><span class="line">25</span><br><span class="line">26</span><br><span class="line">27</span><br><span class="line">28</span><br><span class="line">29</span><br></pre></td><td class="code"><pre><code class="hljs shell">GPT2LMHeadModel(<br>  (transformer): GPT2Model(<br>    (wte): Embedding(22557, 768)<br>    (wpe): Embedding(1024, 768)<br>    (drop): Dropout(p=0.1, inplace=False)<br>    (h): ModuleList(<br>      (0-11): 12 x GPT2Block(<br>        (ln_1): LayerNorm((768,), eps=1e-05, elementwise_affine=True)<br>        (attn): GPT2SdpaAttention(<br>          (c_attn): Conv1D()<br>          (c_proj): Conv1D()<br>          (attn_dropout): Dropout(p=0.1, inplace=False)<br>          (resid_dropout): Dropout(p=0.1, inplace=False)<br>        )<br>        (ln_2): LayerNorm((768,), eps=1e-05, elementwise_affine=True)<br>        (mlp): GPT2MLP(<br>          (c_fc): Conv1D()<br>          (c_proj): Conv1D()<br>          (act): NewGELUActivation()<br>          (dropout): Dropout(p=0.1, inplace=False)<br>        )<br>      )<br>    )<br>    (ln_f): LayerNorm((768,), eps=1e-05, elementwise_affine=True)<br>  )<br>  (lm_head): Linear(in_features=768, out_features=22557, bias=False)<br>)<br>Truncation was not explicitly activated but `max_length` is provided a specific value, please use `truncation=True` to explicitly truncate examples to max length. Defaulting to &#x27;longest_first&#x27; truncation strategy. If you encode pairs of sequences (GLUE-style) with the tokenizer you can select this strategy more precisely by providi
…
/span><br><span class="line">37</span><br><span class="line">38</span><br><span class="line">39</span><br><span class="line">40</span><br><span class="line">41</span><br><span class="line">42</span><br><span class="line">43</span><br><span class="line">44</span><br><span class="line">45</span><br><span class="line">46</span><br></pre></td><td class="code"><pre><code class="hljs shell">[&#123;&#x27;label&#x27;: &#x27;LABEL_1&#x27;, &#x27;score&#x27;: 0.5209763646125793&#125;]<br>BertForSequenceClassification(<br>  (bert): BertModel(<br>    (embeddings): BertEmbeddings(<br>      (word_embeddings): Embedding(21128, 768, padding_idx=0)<br>      (position_embeddings): Embedding(512, 768)<br>      (token_type_embeddings): Embedding(2, 768)<br>      (LayerNorm): LayerNorm((768,), eps=1e-12, elementwise_affine=True)<br>      (dropout): Dropout(p=0.1, inplace=False)<br>    )<br>    (encoder): BertEncoder(<br>      (layer): ModuleList(<br>        (0-11): 12 x BertLayer(<br>          (attention): BertAttention(<br>            (self): BertSdpaSelfAttention(<br>              (query): Linear(in_features=768, out_features=768, bias=True)<br>              (key): Linear(in_features=768, out_features=768, bias=True)<br>              (value): Linear(in_features=768, out_features=768, bias=True)<br>              (dropout): Dropout(p=0.1, inplace=False)<br>            )<br>            (output): BertSelfOutput(<br>              (dense): Linear(in_features=768, out_features=768, bias=True)<br>              (LayerNorm): LayerNorm((768,), eps=1e-12, elementwise_affine=True)<br>              (dropout): Dropout(p=0.1, inplace=False)<br>            )<br>          )<br>          (intermediate): BertIntermediate(<br>            (dense): Linear(in_features=768, out_features=3072, bias=True)<br>            (intermediate_act_fn): GELUActivation()<br>          )<br>          (output): BertOutput(<br>            (dense): Linear(in_features=3072, out_features=768, bias=True)<br>            (LayerNorm): LayerNorm((768,), eps=1e-12, elementwise_affine=True)<br>            (dropout): Dropout(p=0.1, inplace=False)<br>          )<br>        )<br>      )<br>    )<br>    (pooler): BertPooler(<br>      (dense): Linear(in_features=768, out_features=768, bias=True)<br>      (activation): Tanh()<br>    )<br>  )<br>  (dropout): Dropout(p=0.1, inplace=False)<br>  (classifier): Linear(in_features=768, out_features=2, bias=True)<br>)<br></code></pre></td></tr></table></figure><h3 id="datasets-使用">2. Datasets 使用</h3><p>Datasets 库是 HuggingFace生态系统中一个重要的数据集库，可用于轻松地访问和共享数据集，这些数据集是关于音频、计算机视觉、以及自然语言处理等领域。Datasets库可以通过一行来加载一个数据集，并且可以使用 Hugging Face强大的数据处理方法来快速准备好你的数据集。在 Apache Arrow格式的支持下，通过 zero-copy read来处理大型数据集，而没有任何内存限制，从而实现最佳速度和效率。</p><p>  当需要微调模型的时候，需要对数据集进行以下操作：</p><ol type="1">
…
